54290
13573
54290
13573
Model: "sequential"
_________________________________________________________________
 Layer (type)                Output Shape              Param #   
=================================================================
 embedding (Embedding)       (None, 49, 50)            1669300   
                                                                 
 bidirectional (Bidirection  (None, 49, 100)           40400     
 al)                                                             
                                                                 
 dropout (Dropout)           (None, 49, 100)           0         
                                                                 
 lstm_1 (LSTM)               (None, 30)                15720     
                                                                 
 dense (Dense)               (None, 16693)             517483    
                                                                 
 dense_1 (Dense)             (None, 32784)             547296096 
                                                                 
=================================================================
Total params: 549538999 (2.05 GB)
Trainable params: 549538999 (2.05 GB)
Non-trainable params: 0 (0.00 Byte)
_________________________________________________________________
None
Epoch 1/25
  1/849 [..............................] - ETA: 2:12:08 - loss: 10.3976 - a
…
